reg/KNN.onnx (onnx, 17205 bytes, 1 tensors)

Sc_Scancst f4 [331, 10]
0	0xbd66e454	-0.056370094
1	0x3d4f95f5	0.05068012
2	0xbd7627cf	-0.06009656
3	0xbd1624b0	-0.03665608
4	0xbdb4be82	-0.08825399
5	0xbd9110ce	-0.07083283
6	0xbc648513	-0.013947743
7	0xbd21c3d0	-0.039493382
8	0xbda007d5	-0.07813994
9	0xbdd64873	-0.10463037
10	0x3c855f0d	0.016280675
11	0xbd36da26	-0.044641636
12	0x3cd60b3e	0.026128408
13	0x3d700e87	0.058607604
14	0xbd78c531	-0.06073493
15	0xbd351b04	-0.044215217
16	0xbc648513	-0.013947743
17	0xbd0b17c5	-0.033958215
18	0xbd528cde	-0.051403873
19	0xbcd46bdd	-0.02593034
20	0x3d897eb6	0.06713621
21	0xbd36da26	-0.044641636
22	0xbd1ddc73	-0.038540315
23	0xbcd7acd4	-0.026327528
24	0xbd026a94	-0.031839922
25	0xbcd7fcff	-0.026365755
26	0x3c056660	0.008142084
27	0xbd21c3d0	-0.039493382
28	0xbcde3daf	-0.027129022
29	0x3b48d442	0.0030644094
30	0x3bb06462	0.0053830603
31	0xbd36da26	-0.044641636
32	0x3d4c2551	0.049840275
33	0x3dc7ea6e	0.09761511
34	0xbc7b2457	-0.015328488
35	0xbc85e5f5	-0.016345004
36	0xbbd7c285	-0.006584468
37	0xbb29e2f1	-0.002592262
38	0x3c8b8f3b	0.017036071
39	0xbc5d3ff5	-0.013504018
40	0x3cc0e306	0.023545753
41	0xbd36da26	-0.044641636
42	0xbd15081d	-0.03638469
43	0x38a5f757	7.913884e-05
44	0x3a9b0d14	0.0011829459
45	0x3d0e1fb2	0.034698196
46	0xbd31c516	-0.043400846
47	0x3d0c8772	0.03430886
48	0xbd082c88	-0.033245593
49	0x3d7a13a9	0.061053906
50	0x3d897eb6	0.06713621
51	0x3d4f95f5	0.05068012
52	0xbcf51637	-0.02991782
53	0x3d6b4319	0.057437036
54	0xb94a61e9	-0.00019300696
55	0xbc80c484	-0.015718706
56	0x3d986517	0.07441156
57	0xbd4f1be7	-0.05056372
58	0xbd1d87f0	-0.03845972
59	0x3bec24a4	0.0072065163
60	0x3c13b62a	0.009015599
61	0x3d4f95f5	0.05068012
62	0x3cf95c96	0.030439656
63	0x3d2e3367	0.04252949
64	0xbb40ff70	-0.0029449128
65	0x3d171a37	0.036890235
66	0xbd861ff9	-0.06549067
67	0x3d91d68a	0.07120998
68	0xbcc1b711	-0.023646863
69	0x3c7dccd5	0.01549073
70	0xbd580356	-0.052737556
71	0xbd36da26	-0.044641636
72	0x3d5dcdfd	0.054151524
73	0xbcd7acd4	-0.026327528
74	0xbd623a07	-0.05523112
75	0xbd0ac723	-0.033881318
76	0xbc648513	-0.013947743
77	0xbd21c3d0	-0.039493382
78	0xbd97bddd	-0.074092604
79	0xbd71f071	-0.059067193
80	0xbdbdd720	-0.092695475
81	0xbd36da26	-0.044641636
82	0xbda73995	-0.0816528
83	0xbd6ac13b	-0.057313185
84	0xbd78c531	-0.06073493
85	0xbd8b4b30	-0.0680145
86	0x3d473ad7	0.0486401
87	0xbd9c74b9	-0.076394506
88	0xbd882c03	-0.066490196
89	0xbcb27d3c	-0.021788232
90	0x3c13b62a	0.009015599
91	0x3d4f95f5	0.05068012
92	0x3d8dce2b	0.06924089
93	0x3d74b5dc	0.059743747
94	0x3c90f3ce	0.01769438
95	0xbcbe55cc	-0.02323427
96	0xbd40d990	-0.047082484
97	0x3d0c8772	0.03430886
98	0x3dd38d63	0.10329702
99	0x3d967ccd	0.073480226
100	0x3d0d147d	0.034443367
101	0x3d4f95f5	0.05068012
102	0xbc1aa7ac	-0.00943939
103	0x3d74b5dc	0.059743747
104	0xbd1352f4	-0.035967782
105	0xbbf84732	-0.0075768465
106	0xbd9cbeb0	-0.07653558
107	0x3d91d68a	0.07120998
108	0x3c34660c	0.011010658
109	0xbcb27d3c	-0.021788232
110	0xbd2b605b	-0.04183994
111	0x3d4f95f5	0.05068012
112	0xbcf51637	-0.02991782
113	0xbb11fc72	-0.0022275713
114	0x3cb2c48d	0.021822238
115	0x3d15d1db	0.036577087
116	0x3c41b848	0.011823721
117	0xbb29e2f1	-0.002592262
118	0xbd28a857	-0.041176166
119	0x3d85857d	0.065196015
120	0x3d897eb6	0.06713621
121	0xbd36da26	-0.044641636
122	0x3d172b4d	0.03690653
123	0xbd4e8d0d	-0.050427485
124	0xbcc133aa	-0.023584206
125	0xbd0d57db	-0.034507614
126	0x3d473ad7	0.0486401
127	0xbd21c3d0	-0.039493382
128	0xbcd49b9e	-0.02595311
129	0xbd1d1bdf	-0.038356658
130	0xbdd4289e	-0.103593096
131	0x3d4f95f5	0.05068012
132	0xbd3cc3a0	-0.046085
133	0xbcd7acd4	-0.026327528
134	0xbccc793f	-0.024960158
135	0xbccb2965	-0.024800012
136	0x3cf7a8e9	0.03023191
137	0xbd21c3d0	-0.039493382
138	0xbd230e95	-0.03980883
139	0xbd60f921	-0.054925088
140	0xbd0d9e5f	-0.034574863
141	0xbd36da26	-0.044641636
142	0xbd71bda4	-0.059018746
143	0x3a9f4a05	0.0012152797
144	0xbd5c973d	-0.05385517
145	0xbd9fd0f2	-0.07803525
146	0x3d89509d	0.06704829
147	0xbd9c74b9	-0.076394506
148	0xbcaf4537	-0.021395309
149	0x3c7dccd5	0.01549073
150	0xbaf6adff	-0.0018820165
151	0xbd36da26	-0.044641636
152	0xbd83e83d	-0.0644078
153	0x3c3d2258	0.011543833
154	0x3cdfdae1	0.02732605
155	0x3d19aaef	0.03751653
156	0xbc648513	-0.013947743
157	0x3d0c8772	0.03430886
158	0x3c4117e7	0.011785484
159	0xbd60f921	-0.054925088
160	0x3d489876	0.048973523
161	0xbd36da26	-0.044641636
162	0xbd2f851f	-0.042851564
163	0xbd5ca724	-0.053870335
164	0x3d3931ba	0.04521344
165	0x3d4cf955	0.05004247
166	0x3d0ae8ef	0.03391355
167	0xbb29e2f1	-0.002592262
168	0xbcd49b9e	-0.02595311
169	0xbd8173e1	-0.0632093
170	0xbd580356	-0.052737556
171	0xbd36da26	-0.044641636
172	0xbc1aa7ac	-0.00943939
173	0xbbb9cef3	-0.005670422
174	0x3d22a690	0.039709628
175	0x3d372b37	0.044718947
176	0x3cd97ff5	0.026550272
177	0xbb29e2f1	-0.002592262
178	0xbc94632b	-0.018113693
179	0xbc5d3ff5	-0.013504018
180	0x3c4f3a22	0.012648137
181	0xbd36da26	-0.044641636
182	0xbca59f32	-0.020217512
183	0xbc831048	-0.015998974
184	0x3c47baf4	0.012190569
185	0x3cadf06f	0.021232812
186	0xbd9cbeb0	-0.07653558
187	0x3ddd695a	0.1081111
188	0x3d75441b	0.059879404
189	0xbcb27d3c	-0.021788232
190	0xbcc1f6c9	-0.023677247
191	0xbd36da26	-0.044641636
192	0xbd3cc3a0	-0.046085
193	0xbd080a99	-0.03321323
194	0x3d06789b	0.032829862
195	0x3d14897f	0.03626394
196	0x3d19fd69	0.037595186
197	0xbb29e2f1	-0.002592262
198	0xbd082c88	-0.033245593
199	0x3c39ef93	0.011348623
200	0x3d90ef35	0.07076875
201	0xbd36da26	-0.044641636
202	0xbba809f9	-0.005128142
203	0xbbb9cef3	-0.005670422
204	0x3db3f420	0.087867975
205	0x3dd2df15	0.10296456
206	0x3c41b848	0.011823721
207	0x3d0c8772	0.03430886
208	0xbc128752	-0.008943396
209	0x3ce4b24d	0.027917052
210	0xbd3a4159	-0.045472477
211	0x3d4f95f5	0.05068012
212	0xbcc8f089	-0.024528759
213	0x3d74b5dc	0.059743747
214	0x3bae0642	0.0053108046
215	0x3c754412	0.0149698425
216	0xbd5f0284	-0.05444576
217	0x3d91d68a	0.07120998
218	0x3d2d6dbd	0.042340983
219	0x3c7dccd5	0.01549073
220	0xbd98a4a5	-0.074532785
221	0x3d4f95f5	0.05068012
222	0xbd9e653f	-0.07734155
223	0xbd4072f6	-0.046984635
224	0xbd406948	-0.046975404
225	0xbd05a5b2	-0.032628722
226	0x3b9228ee	0.0044604456
227	0xbd21c3d0	-0.039493382
228	0xbd93ba56	-0.07213275
229	0xbc908e9b	-0.017646125
230	0xbd3a4159	-0.045472477
231	0xbd36da26	-0.044641636
232	0xbd4597f6	-0.048240624
233	0xbc9f4477	-0.019441826
234	0xb94a61e9	-0.00019300696
235	0xbc83553d	-0.016031856
236	0x3d89509d	0.06704829
237	0xbd21c3d0	-0.039493382
238	0xbccb1fc9	-0.02479543
239	0x3ca0d50b	0.019632837
240	0x3c13b62a	0.009015599
241	0xbd36da26	-0.044641636
242	0x3d3a7ca5	0.045529027
243	0x3ceb9615	0.028758088
244	0x3c47baf4	0.012190569
245	0xbc62c065	-0.013839816
246	0x3cd97ff5	0.026550272
247	0xbd21c3d0	-0.039493382
248	0x3d3cf609	0.046133075
249	0x3d1447c7	0.036201265
250	0x3d489876	0.048973523
251	0x3d4f95f5	0.05068012
252	0xbcfdea8d	-0.030995632
253	0xbd49e5b8	-0.049291342
254	0x3d4a1a19	0.049341295
255	0xbb876785	-0.0041322135
